model_parameters.pth (torch, 305779 bytes, 10 tensors)

localization.0.weight f4 [8, 1, 7, 7]
0.10469704 -0.1549596 -0.040015474 0.070544675 0.11404714 0.10397115 -0.14948516 -0.13644335
-0.12284568 -0.057328552 0.10152009 0.09836155 -0.021326387 -0.06367557 0.024195552 0.09327837
-0.04810197 0.10091302 -0.07652669 -0.06207249 -0.14626403 -0.029683 -0.028136335 -0.059516057
-0.15774009 0.05444953 -0.095491774 0.069525845 -0.12482624 0.036754355 -0.0816214 -0.06361756
0.09461496 -0.13462275 0.07203291 -0.10717378 -0.09016852 -0.14358704 -0.067921944 -0.074321486
0.017838042 0.021171391 0.096887626 0.012308151 0.11598034 0.009852668 0.08778168 -0.09547224
-0.076058395 0.10381134 0.13403364 0.021590414 0.02239085 -0.03358682 0.02483196 -0.04788905
0.14506657 0.10826609 -0.062048566 0.014254591 -0.1729371 -0.053390954 -0.147378 -0.07687097
0.028492277 0.055324215 -0.16974781 -0.17658809 -0.18946958 -0.02310816 -0.003700721 -0.04271481
-0.14593434 -0.13523613 -0.09911135 -0.041408353 0.04326931 0.11383129 0.02666099 -0.11543634
-0.078944355 -0.122334674 -0.034833968 -0.014481552 -0.048805445 -0.10095511 0.04243245 0.052678686
-0.04935289 0.00350663 -0.17566572 0.13640904 -0.13119596 0.007906633 -0.030588055 0.04742962
0.041079912 -0.09742151 -0.135565 0.049350217 0.03285088 -0.08875454 0.07903257 0.09122594
-0.083970405 0.064234674 -0.07926586 0.04272878 0.029980358 -0.07215265 -0.043526243 -0.08860555
-0.08694833 0.098229304 -0.03691531 -0.051106416 -0.06615007 0.07691838 -0.12490572 -0.122067265
-0.10829496 -0.04869007 0.073578104 -0.019980995 -0.017375086 -0.1326719 0.0020888848 0.08635183
-0.11414327 -0.010905851 -0.042573564 -0.039287534 0.008279585 -0.09728932 -0.1043569 0.01257511
0.104858935 -0.11929628 -0.026553614 0.012429957 -0.15071975 -0.123299375 0.02834119 -0.102480896
-0.015465879 0.06191541 0.04739172 -0.030029455 0.01829 0.007152361 -0.12770376 -0.08028654
-0.1418674 0.1256898 0.11737931 0.06762011 -0.008407881 -0.045193907 0.0047826427 -0.011655289
0.00070196594 -0.082887635 -0.09024713 -0.066320755 0.124449186 -0.03292074 -0.136218 0.10545984
0.07525613 0.05321531 0.041280307 -0.058314513 -0.03928953 -0.12980676 -0.07225105 -0.071561284
0.0069120177 -0.025086546 -0.14089131 -0.12959826 0.01828193 0.058954783 -0.115117475 0.009295207
-0.008683535 0.1267283 -0.028148245 -0.078471385 -0.03252718 0.10008192 0.014623699 -0.12717894
0.08549898 -0.13779385 0.083827056 -0.052444916 0.09892614 0.006046973 -0.13904037 0.013571717
-0.1333071 -0.021376774 -0.07982117 0.113646805 -0.03391778 0.022586146 0.038270637 0.02808781
-0.11940184 -0.09253714 0.010344973 0.13989109 -0.051766366 -0.08815449 0.035382707 -0.107190065
-0.13564909 0.1116581 -0.024836134 -0.06842555 0.012015741 0.06516595 0.072346084 -0.13957115
0.12392864 0.073823534 -0.018798798 0.0070983116 0.081821114 -0.08040106 -0.089946486 0.023630356
0.12742619 -0.018344881 0.04313663 -0.11272361 -0.11395516 0.042837746 -0.06885248 0.12508999
-0.0872827 0.061351154 -0.10988587 -0.1422873 -0.1724752 -0.122118205 0.037101794 -0.002522172
0.079475865 -0.16857995 0.05424667 -0.19009107 -0.1483957 0.10707887 -0.1369178 -0.052520745
00000000: 676b d63d bbad 1ebe 44e7 23bd ba79 903d
00000010: 8c91 e93d d4ee d43d a312 19be ceb7 0bbe
00000020: 8496 fbbd 58d1 6abd c4e9 cf3d c871 c93d
00000030: adb4 aebc 5668 82bd c035 c63c bb08 bf3d
00000040: 9206 45bd 7cab ce3d 06ba 9cbd b93f 7ebd
00000050: 3dc6 15be c329 f3bc 2c7e e6bc 1cc7 73bd
00000060: 9e86 21be 7806 5f3d 3191 c3bd 9163 8e3d
00000070: e6a4 ffbd bc8b 163d 1f29 a7bd ec49 82bd
00000080: 7dc5 c13d 8cda 09be fe85 933d ed7d dbbd
00000090: 46aa b8bd 7b08 13be a91a 8bbd dd35 98bd
000000a0: 1621 923c a06f ad3c 056d c63d 21a8 493c
000000b0: 1a87 ed3d 166d 213c e2c6 b33d f386 c3bd
000000c0: 81c4 9bbd 0a9b d43d 1d40 093e 61de b03c
000000d0: 046d b73c 5592 09bd 656c cb3c 4f27 44bd
000000e0: 558c 143e 9dba dd3d a326 7ebd 178c 693c
000000f0: 6c16 31be 79b0 5abd 42ea 16be 876e 9dbd
00000100: a368 e93c a59b 623d 5fd2 2dbe 82d3 34be
00000110: 5004 42be 534d bdbc cc87 72bb baf5 2ebd
00000120: d06f 15be 577b 0abe e4fa cabd ce9b 29bd
00000130: 293b 313d 6120 e93d 2668 da3c e369 ecbd
00000140: 94ad a1bd 9a8a fabd 10ae 0ebd 0844 6dbc
00000150: 38e8 47bd 8dc1 cebd a6cd 2d3d 9bc5 573d
00000160: 4226 4abd 7dcf 653b b7e1 33be d0ae 0b3e
00000170: 3c58 06be d38a 013c cd93 fabc 9045 423d
00000180: 6943 283d ee84 c7bd 8dd1 0abe 7423 4a3d
00000190: a58e 063d f1c4 b5bd d4db a13d aad4 ba3d
000001a0: adf8 abbd 788d 833d 2456 a2bd 6004 2f3d
000001b0: 5e99 f53c c5c4 93bd 9348 32bd d476 b5bd
000001c0: f711 b2bd 722c c93d 8234 17bd f654 51bd
000001d0: b079 87bd 6287 9d3d 92ce ffbd 67fe f9bd
000001e0: bfc9 ddbd 3d6f 47bd 1eb0 963d 2faf a3bc
000001f0: 3256 8ebc 24db 07be ace5 083b 3ad9 b03d
00000200: f2c3 e9bd 74ae 32bc 9e61 2ebd f7eb 20bd
00000210: 19a7 073c 9f3f c7bd 12b9 d5bd d607 4e3c
00000220: 48c0 d63d 9c51 f4bd f786 d9bc 05a7 4b3c
00000230: 4756 1abe 6284 fcbd c92b e83c 81e1 d1bd
00000240: 9964 7dbc 039b 7d3d d21d 423d 5500 f6bc
00000250: e9d4 953c 5a5e ea3b c6c4 02be 456d a4bd
00000260: b045 11be d4b4 003e 9064 f03d 6a7c 8a3d
00000270: 35c1 09bc 3f1d 39bd b7b7 9c3b d3f5 3ebc
00000280: 2304 383a fec0 a9bd 7dd3 b8bd 2dd3 87bd
00000290: 37df fe3d e6d7 06bd bb7c 0bbe 54fb d73d
000002a0: e31f 9a3d 4cf8 593d 8a15 293d 33db 6ebd
000002b0: 0fee 20bd 10ec 04be 5cf8 93bd b98e 92bd
000002c0: 357e e23b 4d82 cdbc d045 10be 68b5 04be
000002d0: fcc3 953c 927a 713d b6c2 ebbd ed4a 183c
000002e0: 6345 0ebc 10c5 013e 2697 e6bc 9bb5 a0bd
000002f0: 383b 05bd c0f7 cc3d 3d98 6f3c 323b 02be
00000300: 171a af3d d519 0dbe 85ad ab3d 7bd0 56bd
00000310: ca99 ca3d b025 c63b 9960 0ebe e85b 5e3c
00000320: a881 08be 581e afbc 4879 a3bd a8bf e83d
00000330: 5fed 0abd 9506 b93c acc1 1c3d 6818 e63c
00000340: f488 f4bd 1d84 bdbd f67d 293c 9c3f 0f3e
00000350: f808 54bd 578a b4bd 75ed 103d 7786 dbbd
00000360: 98e7 0abe 00ad e43d 2675 cbbc b222 8cbd
00000370: acdd 443c ba75 853d 2f2a 943d bdeb 0ebe
00000380: 4cce fd3d cb30 973d f0ff 99bc f498 e83b
00000390: d491 a73d 50a9 a4bd dd35 b8bd 7394 c13c
000003a0: 037c 023e 0148 96bc 09b0 303d a3db e6bd
000003b0: 5361 e9bd a276 2f3d 8702 8dbd 9717 003e
000003c0: 46c1 b2bd 594b 7b3d d80b e1bd c3b3 11be
000003d0: 579d 30be 1c19 fabd 0df8 173d 064b 25bb
000003e0: 3ec4 a23d 39a0 2cbe c231 5e3d 3ca7 42be
000003f0: 0bf5 17be 2b4c db3d 2e34 0cbe fe1f 57bd

localization.0.bias f4 [8]
-0.15241958 0.06414678 0.0012529976 -0.124076016 -0.090063386 -0.07158104 -0.108407736 -0.11039363
00000000: e113 1cbe 635f 833d 9f3b a43a 911b febd
00000010: 2773 b8bd 1599 92bd e004 debd 0e16 e2bd

localization.3.weight f4 [10, 8, 5, 5]
0.021205321 -0.00691327 -0.019501956 0.015380449 -0.015526635 -0.0045046806 -0.03966656 0.019901173
-0.024990035 0.035251662 0.015855318 0.008204196 0.031463005 -0.0059096133 -0.06822247 0.048849415
-0.05823805 -0.033462506 -0.03998314 0.056937654 -0.05782879 -0.0038750733 -0.005876627 0.009692114
0.036555164 -0.052780982 0.027237102 0.034298267 -0.03186352 0.07127537 -0.047412917 -0.066770494
-0.075324655 -0.05812431 -0.0006475834 0.044784047 -0.017672405 -0.04374982 0.06570891 0.01014517
-0.057635378 -0.016432213 0.033570025 -0.02738667 -0.010658859 0.013820917 0.017954957 -0.07334902
-0.04464904 -0.026612574 -0.025411785 -0.018136624 0.0013704926 -0.030673375 -0.044535752 -0.017189687
0.018324574 0.005815401 -0.03140619 -0.053950194 0.010268623 0.018220803 -0.041025452 -0.045072593
-0.009485288 0.06558715 0.043101724 -0.06716245 0.021998981 0.021370525 -0.062204182 -0.0056149587
-0.035406455 0.063666485 -0.07344229 0.034343608 -0.027490467 -0.0023554415 0.026693918 -0.032673907
-0.061760806 -0.021789659 -0.012361672 0.03348188 0.05011984 0.0624123 0.040769584 -0.028084133
-0.009448558 -0.06264213 0.052337155 0.053343914 0.039475575 0.031232491 0.018440902 -0.05626633
-0.058181517 0.033028543 -0.06862068 0.059846528 0.037428506 0.018571194 -0.008266211 0.0232065
-0.012986445 -0.06685085 0.07531979 0.018490393 0.07878387 0.073021956 -0.0023271083 0.04884134
0.049248617 0.059110068 0.08878689 0.011919335 -0.006837239 0.0019964417 -0.017861195 -0.0040347213
-0.026809325 -0.025581636 0.09586286 -0.03895099 -0.02339632 0.0064824643 0.031770896 -0.016770648
-0.06741485 0.00725333 -0.06258384 -0.014550384 -0.054537687 0.034828577 0.027964912 -0.041433744
0.03674926 -0.002811623 -0.07853803 -0.030153424 -0.0122846775 -0.07235869 0.01327321 -0.034537733
0.06553509 -0.027025744 -0.08744773 -0.04266989 -0.0135620525 0.06499122 0.017978216 0.07410614
0.05566511 0.052764192 0.0840677 0.10016467 -0.0046033547 0.08312387 -0.0076517314 0.0155908475
-0.00097304635 0.09078319 -0.006508214 0.041555565 0.09041033 0.010726272 -0.00010407169 0.02885958
-0.028802952 0.08346418 0.08800536 0.094551206 0.0039050262 0.031201337 -0.027889712 0.03127176
-0.047317646 -0.043277178 0.038889617 -0.011261051 -0.02296269 0.06768255 -0.043298237 0.04654106
-0.0340907 -0.011885819 -0.023462178 0.040793963 0.006398878 -0.043220084 -0.040381424 0.040404543
0.0009056821 0.021641945 0.055130374 -0.044826057 0.030083276 -0.06341183 -0.052938495 0.02488671
0.062044725 -0.033482693 0.015490339 0.056758687 0.033809125 0.004714267 0.004553186 0.022738483
0.050686162 0.009230092 0.06373197 0.0625431 0.0027462873 0.018046588 0.05014858 -0.0637137
0.05945982 -0.051677354 -0.031564258 -0.051343527 -0.07133435 -0.053064507 -0.044550583 -0.008804026
-0.020151677 -0.035705395 0.014908802 0.018668804 -0.04906599 -0.026778376 -0.03291955 0.020331908
-0.0068787285 0.020083906 -0.010134596 0.011241578 -0.05984112 -0.06672514 0.040155105 -0.098107934
-0.10145725 -0.009488869 -0.08345787 0.0015266555 -0.079374924 -0.0039488347 -0.0048466865 -0.07627224
-0.010778477 0.036738575 -0.001062132 0.013044611 -0.037377283 0.015598472 0.05062685 0.06908343
00000000: c8b6 ad3c b688 e2bb 91c2 9fbc 47fe 7b3c
00000010: 6d63 7ebc 009c 93bb 6779 22bd c907 a33c
00000020: e7b7 ccbc 0c64 103d 03e3 813c e46a 063c
00000030: 5adf 003d 6ea5 c1bb 39b8 8bbd 5316 483d
00000040: 068b 6ebd fb0f 09bd 5cc5 23bd 7537 693d
00000050: e2dd 6cbd f1f4 7dbb b890 c0bb accb 1e3c
00000060: deba 153d df30 58bd 5820 df3c 577c 0c3d
00000070: 5383 02bd d2f8 913d 0c34 42bd f8be 88bd
00000080: d043 9abd c213 6ebd 96c2 29ba 7a6f 373d
00000090: b8c5 90bc 0333 33bd 6592 863d ed37 263c
000000a0: 1313 6cbd d99c 86bc b980 093d 025a e0bc
000000b0: 7fa2 2ebc 2171 623c 4616 933c 0338 96bd
000000c0: e9e1 36bd 9d02 dabc 602c d0bc 4293 94bc
000000d0: 1aa2 b33a bb46 fbbc 1f6b 36bd 63d1 8cbc
000000e0: 6b1d 963c 1f8f be3b c7a3 00bd e1fa 5cbd
000000f0: ba3d 283c cb43 953c 4e0a 28bd 0a9e 38bd
00000100: 2e68 1bbc 8e52 863d 6f8b 303d 778c 89bd
00000110: 3537 b43c 3d11 af3c d0c9 7ebd b0fd b7bb
00000120: 5c06 11bd 9363 823d e968 96bd e2ab 0c3d
00000130: b033 e1bc c05d 1abb 34ad da3c 13d5 05bd
00000140: e6f8 7cbd 3a80 b2bc 9c88 4abc 4c24 093d
00000150: 764a 4d3d 0aa4 7f3d 02fe 263d b210 e6bc
00000160: 20ce 1abc 844a 80bd 7c5f 563d 267f 5a3d
00000170: 24b1 213d 48db ff3c 6011 973c 8677 66bd
00000180: be4f 6ebd f048 073d 0089 8cbd a221 753d
00000190: a24e 193d 9e22 983c 006f 07bc 8f1b be3c
000001a0: 19c5 54bc 19e9 88bd 4341 9a3d 2a79 973c
000001b0: 7059 a13d 898c 953d 6682 18bb db0d 483d
000001c0: ebb8 493d 661d 723d e7d5 b53d 5149 433c
000001d0: eb0a e0bb bcd6 023b a451 92bc b235 84bb
000001e0: 3b9f dbbc 9490 d1bc bf53 c43d 138b 1fbd
000001f0: a4a9 bfbc da6a d43b 3322 023d 9962 89bc
00000200: cc10 8abd 58ad ed3b f52b 80bd bc64 6ebc
00000210: e962 5fbd 69a8 0e3d ac16 e53c 6eb6 29bd
00000220: 6486 163d 3543 38bb 8cd8 a0bd 5004 f7bc
00000230: ac45 49bc cb30 94bd e177 593c 7077 0dbd
00000240: 4337 863d 1865 ddbc cc17 b3bd 9fc6 2ebd
00000250: 5f33 5ebc 1e1a 853d 0d47 933c f6c4 973d
00000260: 1901 643d 441f 583d b02b ac3d 2223 cd3d
00000270: bdd7 96bb d93c aa3d 60bb fabb c170 7f3c
00000280: 0914 7fba 8aec b93d db42 d5bb 2b36 2a3d
00000290: 0d29 b93d 3fbd 2f3c 1041 dab8 ed6a ec3c
000002a0: 2bf4 ebbc 45ef aa3d 273c b43d 10a4 c13d
000002b0: 78eb 7f3b f299 ff3c f778 e4bc d116 003d
000002c0: 26d0 41bd 6943 31bd b84a 1f3d 4580 38bc
000002d0: 401c bcbc 269d 8a3d 7e59 31bd d7a1 3e3d
000002e0: b1a2 0bbd bdbc 42bc c133 c0bc 9217 273d
000002f0: aead d13b 8b07 31bd fe66 25bd 3c7f 253d
00000300: 4c6b 6d3a 734a b13c 63d0 613d 879b 37bd
00000310: 3471 f63c 10de 81bd 09d6 58bd 37df cb3c
00000320: 9c22 7e3d 2625 09bd 31cb 7d3c cc7b 683d
00000330: 707b 0a3d 237a 9a3b e432 953b 0e46 ba3c
00000340: 4b9c 4f3d d039 173c e885 823d 9916 803d
00000350: 0efb 333b 70d6 933c 9968 4d3d 547c 82bd
00000360: 248c 733d a2ab 53bd 8649 01bd 974d 52bd
00000370: be17 92bd 2b5a 59bd ac7a 36bd c33e 10bc
00000380: 2115 a5bc d23f 12bd 0c44 743c 52ef 983c
00000390: 6bf9 48bd 535e dbbc a6d6 06bd 1a8f a63c
000003a0: f566 e1bb 0187 a43c 940b 26bc 982e 383c
000003b0: f61b 75bd 31a7 88bd ae79 243d d0ec c8bd
000003c0: d2c8 cfbd 3477 1bbc f6eb aabd 0f1a c83a
000003d0: 528f a2bd 3a65 81bb f4d0 9ebb 9f34 9cbd
000003e0: 3698 30bc 307b 163d 3c37 8bba 10b9 553c
000003f0: ec18 19bd bc90 7f3c 1a5e 4f3d 9d7b 8d3d

localization.3.bias f4 [10]
0.0544646 -0.1296114 -0.030847505 0.109982714 -0.043763 -0.00894852 -0.055032715 -0.15053011
-0.21159974 -0.082066715
00000000: 4616 5f3d dab8 04be e8b3 fcbc 9e3e e13d
00000010: d540 33bd d09c 12bc fc69 61bd 9124 1abe
00000020: 9aad 58be 9812 a8bd

localization.6.weight f4 [10, 10, 3, 3]
0.12479596 0.1007873 -0.024843602 0.030894093 0.09426169 0.05493062 0.012081382 0.059316132
-0.06802617 -0.12340959 -0.12039741 0.0802965 -0.009791505 -0.13020779 -0.034389332 -0.081717014
-0.14957528 0.020169279 0.12250014 0.11039235 -0.033534355 -0.034171563 -0.09843274 -0.01999983
-0.080443755 -0.012092226 0.007640904 0.016678557 0.009237571 -0.003641267 -0.09921651 0.077469744
0.0798634 0.07863467 -0.015499255 0.06703815 0.021204654 -0.037033107 -0.074225344 0.013884741
-0.09919613 -0.09883341 -0.010922193 0.099017255 -0.058268763 -0.13708842 0.06412747 0.09101714
-0.04842333 0.068119034 0.05242707 -0.0017054625 0.01955152 0.03390286 -0.043889955 -0.08618331
-0.057604387 -0.039385438 -0.010646629 -0.067607746 -0.059034616 0.002323102 0.03994375 -0.17377235
-0.16075838 -0.1297487 -0.13509633 -0.011519655 -0.107275665 -0.07385151 -0.1623486 0.0008038757
-0.005945616 -0.0013914021 0.08112595 -0.16117296 0.059031237 -0.09261055 -0.021902556 -0.03453714
0.03518412 -0.11249344 -0.1032049 0.051500194 -0.093744 -0.090417184 0.012409702 -0.0930674
0.0054227794 -0.072932675 0.04787928 0.03386584 0.15627138 0.14757578 0.14281164 0.10606403
0.13790269 0.06410328 0.072511315 -0.0070217084 0.10836974 -0.10106576 0.054868072 0.0071517257
-0.10717369 0.06379745 -0.07941904 -0.10439006 0.038717452 0.07046154 -0.08868378 -0.05966102
-0.002943462 -0.013029991 0.06817754 -0.060222194 0.08946072 0.13520622 0.020745331 0.13952851
0.06469301 0.14019279 -0.018939506 0.065371715 0.09579307 0.11496654 -0.037027493 0.0898426
-0.0137169305 0.053659026 0.052613642 0.071404815 0.09587075 -0.003277077 0.012017421 0.116108075
-0.014661249 -0.06414359 -0.054828852 -0.14696355 -0.0012302033 0.07328241 -0.05352503 -0.08473874
0.08872921 0.03511014 0.044233415 0.1019187 0.060920734 -0.020387344 0.051819205 0.0019662485
-0.09218848 0.06377043 0.047887076 -0.054030947 0.10454266 0.015643502 -0.0075506903 0.048006468
-0.08777036 -0.130284 0.0063221776 -0.056800913 -0.08507956 0.07442843 -0.10874982 -0.06820807
0.10630762 -0.019678714 -0.05251478 0.059107855 -0.1103981 -0.0096836975 -0.033060875 -0.024782091
-0.08597103 0.02468251 -0.06196124 -0.0723544 0.05702251 0.07553295 0.050465044 0.037086125
0.09498061 -0.0053768046 0.04203792 0.12778544 -0.029870976 -0.10393391 0.018405264 0.086298764
-0.0031893172 -0.03671907 0.005367487 -0.0495175 -0.077188976 -0.104825415 0.023837898 0.05587906
-0.020610046 -0.03794149 0.116449915 0.007300803 0.045771748 0.089826554 0.002464711 -0.17415391
-0.02016941 0.077514775 -0.09202736 -0.12311605 -0.040699694 -0.0027262673 -0.026128514 -0.049408905
0.11490866 0.0035848622 0.081424326 0.08360761 0.024039682 -0.07619813 -0.041103143 -0.04492706
0.0455698 0.09871167 0.095520385 -0.0031069682 0.017645888 -0.02477782 -0.019915411 -0.015201744
0.055900265 -0.05878431 -0.06021174 -0.015449812 -0.062244214 -0.081885934 -0.068199426 -0.06186815
-0.11246865 0.09138938 0.06705024 -0.14896049 -0.09532924 -0.043059047 -0.18181673 -0.08528133
0.09775722 -0.17577933 -0.16012731 -0.050578665 -0.022252334 -0.06924904 0.060722113 -0.08158139
00000000: 0695 ff3d 9269 ce3d cf84 cbbc 9c15 fd3c
00000010: 460c c13d eefe 603d fdf0 453c 79f5 723d
00000020: 4e51 8bbd 2bbe fcbd eb92 f6bd 7e72 a43d
00000030: 8c6c 20bc 3155 05be d4db 0cbd 405b a7bd
00000040: 432a 19be 0b3a a53c 5ae1 fa3d 6215 e23d
00000050: 525b 09bd 7bf7 0bbd 1b97 c9bd afd6 a3bc
00000060: b2bf a4bd 791e 46bc 8c60 fa3b 78a1 883c
00000070: 2e59 173c 53a2 6ebb 0732 cbbd 75a8 9e3d
00000080: 6c8f a33d 370b a13d 96f0 7dbc 4c4b 893d
00000090: 62b5 ad3c 07b0 17bd 7503 98bd d37c 633c
000000a0: 5727 cbbd 2c69 cabd fff2 32bc 8fc9 ca3d
000000b0: 3aab 6ebd e860 0cbe 4355 833d 3267 ba3d
000000c0: 8b57 46bd fe81 8b3d c4bd 563d d389 dfba
000000d0: 822a a03c badd 0a3d f4c5 33bd e080 b0bd
000000e0: 94f2 6bbd a052 21bd 336f 2ebc ee75 8abd
000000f0: 48ce 71bd 2f3f 183b 0f9c 233d 61f1 31be
00000100: d89d 24be d8dc 04be b156 0abe efbc 3cbc
00000110: 58b3 dbbd 763f 97bd b63e 26be 2fbb 523a
00000120: 71d3 c2bb b55f b6ba 5d25 a63d 860a 25be
00000130: bdca 713d 9aaa bdbd fd6c b3bc d176 0dbd
00000140: 391d 103d f662 e6bd 175d d3bd def1 523d
00000150: dbfc bfbd a52c b9bd 1052 4b3c 1f9a bebd
00000160: 92b1 b13b ba5d 95bd 101d 443d e8b6 0a3d
00000170: 9b05 203e 1b1e 173e 373d 123e 1938 d93d
00000180: 5d36 0d3e 9548 833d d080 943d 5c16 e6bb
00000190: f4f0 dd3d 91fb cebd 58bd 603d 0659 ea3b
000001a0: e17d dbbd 3da8 823d 73a6 a2bd 75ca d5bd
000001b0: 3196 1e3d 244e 903d d79f b5bd 1d5f 74bd
000001c0: 19e7 40bb be7b 55bc aba0 8b3d 8cab 76bd
000001d0: 2f37 b73d 8073 0a3e 1df2 a93c 90e0 0e3e
000001e0: c57d 843d b38e 0f3e 0627 9bbc 9be1 853d
000001f0: 282f c43d 9473 eb3d 24aa 17bd 66ff b73d
00000200: fabc 60bc 91c9 5b3d 6781 573d b03c 923d
00000210: e257 c43d 3bc4 56bb b8e4 443c 12ca ed3d
00000220: bc35 70bc b75d 83bd 3894 60bd 9d7d 16be
00000230: c63e a1ba 1715 963d 103d 5bbd 818b adbd
00000240: a9b7 b53d a6cf 0f3d 192e 353d c0ba d03d
00000250: 0588 793d 5c03 a7bc 6040 543d 2ddc 003b
00000260: 50cd bcbd 129a 823d 3d25 443d 8e4f 5dbd
00000270: 761a d63d cd26 803c c86b f7bb 6ea2 443d
00000280: f2c0 b3bd 2b69 05be 452a cf3b 13a8 68bd
00000290: 313e aebd ef6d 983d 3ab8 debd acb0 8bbd
000002a0: cfb7 d93d 4135 a1bc bd19 57bd 141b 723d
000002b0: 6618 e2bd 5fa8 1ebc d76a 07bd d003 cbbc
000002c0: 9411 b0bd fa32 ca3c 12cb 7dbd 8b2e 94bd
000002d0: 6f90 693d 05b1 9a3d 6fb4 4e3d 9fe7 173d
000002e0: 3285 c23d e82f b0bb f42f 2c3d 30da 023e
000002f0: fab3 f4bc 4ddb d4bd a3c6 963c 68bd b03d
00000300: dd03 51bb bc66 16bd bfe1 af3b ddd2 4abd
00000310: 4115 9ebd b5ae d6bd b247 c33c 71e1 643d
00000320: 66d6 a8bc 8968 1bbd 4b7d ee3d 933b ef3b
00000330: 287b 3b3d fcf6 b73d fd86 213b 6755 32be
00000340: 523a a5bc 11c0 9e3d d778 bcbd 4524 fcbd
00000350: b9b4 26bd 2dab 32bb 770b d6bc fe60 4abd
00000360: 3b55 eb3d 02f0 6a3b ccc1 a63d 773a ab3d
00000370: deee c43c c40d 9cbd c55b 28bd 7005 38bd
00000380: 66a7 3a3d 5829 ca3d 31a0 c33d 479e 4bbb
00000390: 1c8e 903c dbfa cabc a525 a3bc bc10 79bc
000003a0: adf7 643d d1c7 70bd 96a0 76bd 3521 7dbc
000003b0: caf3 7ebd d0b3 a7bd 24ac 8bbd 7569 7dbd
000003c0: f755 e6bd 5b2a bb3d a351 893d 1989 18be
000003d0: fa3b c3bd af5e 30bd 2a2e 3abe faa7 aebd
000003e0: f034 c83d 7fff 33be 6af8 23be 932b 4fbd
000003f0: 874a b6bc 71d2 8dbd c0b7 783d 2514 a7bd

localization.6.bias f4 [10]
0.10483367 0.2534302 0.114424005 -0.049935766 -0.015539869 0.07318381 -0.10005205 -0.096680894
0.07801959 0.050522774
00000000: 09b3 d63d 9ac1 813e 2257 ea3d 7289 4cbd
00000010: ef9a 7ebc 65e1 953d 17e8 ccbd a200 c6bd
00000020: bcc8 9f3d f8f0 4e3d

fc_loc.0.weight f4 [32, 2250]
-0.0031604748 -0.01637175 -0.017577022 -0.008653716 -0.0013583187 -0.004465777 -0.02343452 -0.018954076
-0.004735421 -0.0038773513 0.010366685 -0.003080514 0.008523461 -0.02605004 -0.014102543 -0.018511953
0.012034983 -0.022106307 -0.021572707 -0.0045354716 0.010211447 -0.022446234 -0.0130172605 -0.020619282
0.015488147 -0.025229612 -0.011705125 0.015080669 -0.017246505 0.002487079 0.0020212817 -0.0058029015
-0.01390628 0.0040113046 -0.020549836 -0.008884506 -0.010352034 -0.0025252511 -0.0012653341 0.0006837975
0.015306913 0.007626186 0.015408772 -0.0041756444 -0.00461227 0.013240962 0.0137990415 -0.021979228
0.014077367 -0.0012136989 0.008804463 -0.02192822 0.0042610974 -0.007616052 -0.008221315 0.010512078
-0.022971114 -0.017352715 0.010437331 -0.008338947 0.01270026 -0.008049125 0.0030279676 0.0016768927
0.0043974104 0.007106654 0.006336578 -0.020559164 -0.0015132439 0.0045583555 0.008283924 0.011682617
0.009800043 -0.00012149169 0.009532122 0.010276858 -0.018433595 9.300634e-05 -0.018415108 0.0036575315
0.0060303085 0.00035431425 -0.007357598 -0.018347153 0.009402167 -0.025178613 0.011057339 -0.024560146
-0.019847626 -0.009445663 -0.004243864 -0.019751059 0.008145682 -0.023577612 -0.008323654 -0.018910376
0.0034704963 -0.022472618 -0.012437895 0.0007557535 -0.020515809 0.010767039 -0.018586727 0.0011100865
-0.002168362 -0.0070348787 0.0007238 -0.011105555 0.009533953 -0.008311588 -0.009683489 -0.01388535
0.0031598953 -0.015814 0.014394579 -0.004170345 0.0057427874 0.012754961 -0.010219863 -0.0071547227
-0.021926772 -0.016191421 0.001485228 -0.005034188 0.0045602024 0.01323553 0.007340647 0.006096314
0.007297459 -0.019583385 -0.013135942 -0.018974252 -0.0012019258 -0.005476911 -0.017717622 0.004532829
-0.02155144 0.008998923 -0.0049639945 -0.015522378 -0.025261313 0.0012871518 -0.018940138 -0.016157564
-0.004531561 -0.00662349 0.012748744 -0.008110529 -0.017432498 0.007902957 0.0060825977 -0.006071878
0.00724852 -0.018701022 0.0014487597 0.002561219 0.0048731924 -0.023300337 -0.0072706793 -0.016977072
-0.015065218 -0.01656555 -0.019796856 -0.016392611 -0.011887535 -0.0046222107 0.015023121 -0.012971222
-0.003584541 0.011475554 0.0002803454 0.005705258 -0.0053850366 -0.0032736177 0.013439277 -0.026333006
0.011719427 0.004441136 -0.0124203665 -0.010030586 0.014785539 0.008795977 0.0008537441 0.003478343
-0.013233316 0.00529897 -0.00056538294 -0.013557921 -0.0007520705 0.010755136 -0.00465494 -0.022134244
0.007274689 0.010617602 0.0037807934 0.010138252 -0.002040091 0.005181854 0.007526226 -0.014529055
-0.008539185 -0.0038450272 -0.0027108586 -0.014868375 0.013970777 -0.0006546751 -0.0068118726 0.0057740766
-0.008824958 -0.010171397 0.00559678 -0.01869895 -0.011036147 0.009891061 0.0012261245 -0.0073889056
0.0053855944 -0.014496152 -0.008313504 -0.010569575 -0.023640575 -0.0134294955 -0.01760655 -0.019382263
0.007979258 0.0039819013 0.0061154705 -0.008304967 -0.019976351 -0.014749623 -0.013410662 0.0009679827
-0.018903218 -0.006455206 -0.014271715 -0.022265848 -0.00851846 -0.021822609 -0.006896704 -0.0013789248
-0.016472133 -0.010154913 -0.013795569 0.0074671004 -0.015946845 -0.0069411686 -0.01410039 0.012246716
0.012517681 -0.023253126 -0.01636143 -0.018128028 -0.01255279 -0.0036726163 -0.016962674 -0.016599331
00000000: f81f 4fbb 0c1e 86bc b0fd 8fbc 51c8 0dbc
00000010: 9d09 b2ba a755 92bb c0f9 bfbc 9445 9bbc
00000020: 972b 9bbb 291b 7ebb 07d9 293c 73e2 49bb
00000030: fda5 0b3c e566 d5bc 5a0e 67bc 61a6 97bc
00000040: 612e 453c 4918 b5bc 3fb9 b0bc 4b9e 94bb
00000050: ea4d 273c 2ae1 b7bc 5946 55bc c5e9 a8bc
00000060: ffc1 7d3c 55ae cebc dac6 3fbc e914 773c
00000070: 8b48 8dbc 43fe 223b 7b77 043b 4426 bebb
00000080: 2ad7 63bc 4371 833b 2158 a8bc 5290 11bc
00000090: 949b 29bc af7e 25bb 91d9 a5ba e040 333a
000000a0: d9c9 7a3c 16e5 f93b 1375 7c3c d8d3 88bb
000000b0: 8622 97bb 9ff0 583c 6015 623c c80d b4bc
000000c0: c2a4 663c fa14 9fba 9840 103c cfa2 b3bc
000000d0: ada0 8b3b 1390 f9bb b2b2 06bc da3a 2c3c
000000e0: eb2d bcbc 4827 8ebc 5701 2b3c 14a0 08bc
000000f0: c014 503c 7ae0 03bc de70 463b 2fcb db3a
00000100: 2718 903b efde e83b 12a3 cf3b b16b a8bc
00000110: 0a58 c6ba 425e 953b 4cb9 073c 7268 3f3c
00000120: 5c90 203c 5bc9 feb8 9e2c 1c3c 4460 283c
00000130: 0d02 97bc 660c c338 48db 96bc 32b3 6f3b
00000140: e599 c53b 41c3 b939 0118 f1bb c54c 96bc
00000150: 8c0b 1a3c 6143 cebc d729 353c 5c32 c9bc
00000160: 7d97 a2bc fbc1 1abc 1d10 8bbb f9cc a1bc
00000170: 7775 053c d625 c1bc ef5f 08bc efe9 9abc
00000180: 4471 633b 7f18 b8bc 50c8 4bbc c21d 463a
00000190: c510 a8bc 3c68 303c 3143 98bc 5280 913a
000001a0: 141b 0ebb d784 e6bb 65bd 3d3a 13f4 35bc
000001b0: 4c34 1c3c 542d 08bc 7fa7 1ebc 617f 63bc
000001c0: 3f16 4f3b 5d8c 81bc 3ed7 6b3c 64a7 88bb
000001d0: fe2d bc3b 2ffa 503c 3671 27bc 2a72 eabb
000001e0: c69f b3bc dfa3 84bc fbab c23a d4f5 a4bb
000001f0: c06d 953b d6d9 583c cf89 f03b 97c3 c73b
00000200: 861f ef3b 566d a0bc 2238 57bc e46f 9bbc
00000210: f089 9dba a977 b3bb 8c24 91bc 2088 943b
00000220: a58c b0bc 3870 133c 01a9 a2bb 9251 7ebc
00000230: d0f0 cebc a6b5 a83a 5928 9bbc de5c 84bc
00000240: 7d7d 94bb dc09 d9bb 1ce0 503c 06e2 04bc
00000250: 99ce 8ebc 677b 013c 8750 c73b 9bf6 c6bb
00000260: fe84 ed3b e332 99bc 4fe4 bd3a 20da 273b
00000270: 4daf 9f3b 59e0 bebc e13e eebb 8013 8bbc
00000280: 1bd4 76bc 7ab4 87bc 042d a2bc cc49 86bc
00000290: f0c3 42bc ea75 97bb 8923 763c 4085 54bc
000002a0: 9eea 6abb f603 3c3c 53fb 9239 2cf3 ba3b
000002b0: f674 b0bb 318a 56bb 6a30 5c3c 51b8 d7bc
000002c0: d702 403c f386 913b cb7e 4bbc 5457 24bc
000002d0: 0c3f 723c 001d 103c cccd 5f3a e9f4 633b
000002e0: 8dd0 58bc fba2 ad3b 3536 14ba 0b22 5ebc
000002f0: 9926 45ba 4f36 303c 7888 98bb e052 b5bc
00000300: 8460 ee3b 73f5 2d3c 30c7 773b e91a 263c
00000310: 0cb3 05bb 8bcc a93b 8f9e f63b 460b 6ebc
00000320: f0e7 0bbc dafc 7bbb a9a8 31bb 7c9a 73bc
00000330: b0e5 643c 819e 2bba 2136 dfbb 7734 bd3b
00000340: 8e96 10bc eea5 26bc 3265 b73b 8a2e 99bc
00000350: f5d0 34bc 1e0e 223c e9b5 a03a a21e f2bb
00000360: a479 b03b 4581 6dbc 5d35 08bc 032c 2dbc
00000370: e1a9 c1bc 6307 5cbc 9d3b 90bc 8dc7 9ebc
00000380: 6fbb 023c 9c7a 823b 4964 c83b 8e11 08bc
00000390: 72a5 a3bc 67a8 71bc 65b8 5bbc 38c0 7d3a
000003a0: ecda 9abc 3186 d3bb e9d3 69bc de66 b6bc
000003b0: 0391 0bbc 54c5 b2bc bffd e1bb 0abd b4ba
000003c0: 91f0 86bc cb60 26bc cf06 62bc 94ae f43b
000003d0: f5a2 82bc be72 e3bb 5205 67bc 73a6 483c
000003e0: f616 4d3c 577d bebc 6808 86bc 3b81 94bc
000003f0: 38aa 4dbc 47b0 70bb 4ef5 8abc 52fb 87bc

fc_loc.0.bias f4 [32]
0.005532044 -0.01801871 0.0065557435 -0.018163782 -0.017729776 -0.01544755 -0.011508433 -0.027761443
0.03224449 0.01507844 0.01182468 -0.010342174 -0.0063858307 -0.03174992 -0.006709916 0.011544665
0.011828777 0.0058746976 -0.0074428353 -0.011713948 -0.03302211 0.014358651 -0.0088190995 -0.03155252
-0.008916567 0.0056372923 -0.00039946462 -0.005269667 -0.0028147763 -0.02540216 -0.016605455 0.0012032919
00000000: 2646 b53b f99b 93bc 90d1 d63b 36cc 94bc
00000010: 093e 91bc b917 7dbc de8d 3cbc f76b e3bc
00000020: cc12 043d 900b 773c 4dbc 413c 3972 29bc
00000030: 3b40 d1bb 340c 02bd dbde dbbb d625 3d3c
00000040: 7dcd 413c 8980 c03b 07e3 f3bb dceb 3fbc
00000050: 3142 07bd 8c40 6b3c fc7d 10bc 373d 01bd
00000060: cb16 12bc 09b9 b83b 3c6f d1b9 2cad acbb
00000070: 1c78 38bb 3118 d0bc 2a08 88bc c7b7 9d3a

fc_loc.2.weight f4 [6, 32]
-0.005894056 -0.008458075 -0.0052043493 0.020836022 -0.005674987 -0.005790601 -0.005984552 -0.0017496053
-0.03509614 -0.005710966 -0.006016728 -0.0059328494 -0.0057473914 -0.00042389025 -0.006244608 -0.005925366
-0.005871022 0.0015051177 -0.001763572 -0.0059554945 0.0033065309 -0.0057609733 -0.005365101 -0.0046482105
-0.005923416 -0.0059569506 -0.0058293077 -0.004330377 0.0070427246 0.006885504 -0.0059729577 -0.006128516
-0.0034590769 -0.0066250083 -0.0036495118 0.022116315 -0.0029554637 -0.0034601134 -0.0040088636 -0.0019768486
-0.0027081894 -0.0031750514 -0.004031718 -0.0038209464 -0.002179794 -0.015762141 -0.0063233753 -0.00394304
-0.0036122955 0.0010031494 0.0061399345 -0.0040593767 0.0050060716 -0.003846203 -0.008651138 0.026678704
-0.003929099 -0.0038965764 -0.003849842 -0.004593973 -0.004068137 -0.017325873 -0.0040434785 0.0010242874
-0.0034839304 0.004165081 -0.003317723 0.01817333 -0.0032362663 -0.0046639824 -0.0030598578 -0.0062022023
0.035318606 -0.0033004156 -0.0031610373 -0.003469822 -0.0053884657 0.013510427 0.00627981 -0.0032174361
-0.004039171 0.0030099272 -0.0009939984 -0.0031939088 0.003464869 -0.0038594117 0.00566077 -0.008151651
-0.0032974973 -0.0035023629 -0.0035781204 -0.0057381247 8.328625e-05 -0.00086811936 -0.0036071748 -0.00488439
-0.004344757 -0.004545795 -0.0042068344 -0.017205402 -0.0038669144 -0.006711826 -0.0044217585 -0.003026265
0.011423534 -0.00423463 -0.004368982 -0.004203052 -0.0046310974 -0.013063121 -0.006287822 -0.0043893363
-0.0043724123 0.0012328806 -0.0016017167 -0.0044111363 -0.0031803073 -0.0043504587 -0.008420272 -0.008020376
-0.004414314 -0.004336308 -0.0043948228 0.009324657 -0.004338035 -0.0059754862 -0.0045384876 -0.0028029943
-0.007774216 -0.0072226585 -0.0056118974 -0.008007404 -0.0072193486 -0.007086255 -0.007895416 -0.0017820025
-0.07692984 -0.0072764913 -0.0076932698 -0.007828723 -0.0068138284 0.014417412 0.006200297 -0.007786057
-0.00748989 0.00027729178 0.011976816 -0.0077992543 0.0038131657 -0.0075639226 0.00869963 0.0033772544
-0.007804208 -0.0076089026 -0.007679668 -0.0078094336 0.0032591338 -0.016535254 -0.007615107 -0.006590567
-0.001484336 0.004149657 -0.0017361996 0.0072017894 -0.0035705003 -0.0015830178 -0.0007871316 0.02594886
0.02796199 -0.0016611837 -0.0012576625 -0.0016341051 -0.0025013126 0.012188658 -0.0061406945 -0.0010896213
-0.001932808 0.0003463823 -0.01157856 -0.0009641694 0.025407758 -0.0015167847 -0.0055760075 -0.0016740649
-0.0009663676 -0.0016146848 -0.0011924561 0.003200722 0.0012347226 -0.010151788 -0.0011113876 -0.005310283
00000000: ed22 c1bb bd93 0abc 3f89 aabb 4eb0 aa3c
00000010: 3ef5 b9bb 15bf bdbb 101a c4bb 0353 e5ba
00000020: f8c0 0fbd 0e23 bbbb f927 c5bb 5968 c2bb
00000030: 9d54 bcbb 963d deb9 929f ccbb 9329 c2bb
00000040: b461 c0bb 5f47 c53a a827 e7ba 4f26 c3bb
00000050: 62b2 583b 8cc6 bcbb bbcd afbb 0450 98bb
00000060: 3719 c2bb 8632 c3bb c703 bfbb d6e5 8dbb
00000070: a8c6 e63b cb9f e13b cdb8 c3bb b8d1 c8bb
00000080: aeb1 62bb 9916 d9bb a62c 6fbb 462d b53c
00000090: 74b0 41bb 12c3 62bb c95c 83bb 048e 01bb
000000a0: e17b 31bb 8614 50bb 801c 84bb d868 7abb
000000b0: e0da 0ebb 9b1f 81bc 5134 cfbb 9e34 81bb
000000c0: 43bc 6cbb 1c7c 833a 8131 c93b 8504 85bb
000000d0: f909 a43b 9410 7cbb 81bd 0dbc 4c8d da3c
000000e0: acbf 80bb b45d 7fbb a14d 7cbb 0a89 96bb
000000f0: 024e 85bb fdee 8dbc 287f 84bb 6241 863a
00000100: a752 64bb 3b7b 883b 286e 59bb 3ce0 943c
00000110: 8a17 54bb 52d4 98bb e587 48bb d83b cbbb
00000120: 3eaa 103d c94b 58bb 6829 4fbb f465 63bb
00000130: ba91 b0bb d75a 5d3c ddc6 cd3b 9fdb 52bb
00000140: 065b 84bb 3342 453b 0d49 82ba e650 51bb
00000150: db12 633b 2fee 7cbb fb7d b93b 818e 05bc
00000160: d31a 58bb e687 65bb e67e 6abb e106 bcbb
00000170: f7a9 ae38 8192 63ba 5a66 6cbb 3c0d a0bb
00000180: 775e 8ebb e4f4 94bb 7cd9 89bb 58f2 8cbc
00000190: 0f6c 7dbb e1ee dbbb 66e4 90bb 4d54 46bb
000001a0: c629 3b3c a7c2 8abb ad29 8fbb c1b9 89bb
000001b0: 76c0 97bb b306 56bc 130a cebb 6cd4 8fbb
000001c0: 7446 8fbb 9c98 a13a b2f0 d1ba 4b8b 90bb
000001d0: b46c 50bb 4b8e 8ebb 2ef5 09bc e567 03bc
000001e0: f3a5 90bb 9717 8ebb 7202 90bb 72c6 183c
000001f0: 1326 8ebb 03ce c3bb 98b7 94bb 71b2 37bb
00000200: dabe febb 0dac ecbb 02e4 b7bb 7d31 03bc
00000210: 4990 ecbb d133 e8bb c65b 01bc 1592 e9ba
00000220: 648d 9dbd a26f eebb d317 fcbb 0b44 00bc
00000230: 8946 dfbb 0237 6c3c dc2b cb3b 2e22 ffbb
00000240: c06d f5bb 7961 9139 683a 443c e390 ffbb
00000250: 4ee6 793b c8da f7bb e588 0e3c ed54 5d3b
00000260: 71ba ffbb 1a54 f9bb b9a5 fbbb 47e6 ffbb
00000270: 3197 553b f174 87bc 2688 f9bb aff5 d7bb
00000280: 0d8e c2ba d9f9 873b 3191 e3ba fdfc eb3b
00000290: 0eff 69bb 437d cfba 8257 4eba b492 d43c
000002a0: 8b10 e53c 13bc d9ba 27d8 a4ba 782f d6ba
000002b0: 10ed 23bb f0b2 473c e137 c9bb a0d1 8eba
000002c0: 4656 fdba a59a b539 00b4 3dbc 50c0 7cba
000002d0: ee23 d03c d9ce c6ba f1b6 b6bb 4c6c dbba
000002e0: d553 7dba d5a3 d3ba 304c 9cba 34c3 513b
000002f0: 6ad6 a13a af53 26bc fbab 91ba e201 aebb

fc_loc.2.bias f4 [6]
0.9998512 8.357188e-05 0.00012880134 0.00011909459 0.9999257 3.128937e-05
00000000: 40f6 7f3f 5043 af38 d90e 0739 6cc2 f938
00000010: 21fb 7f3f b53c 0338
